MoveToGoal.onnx (onnx, 72892 bytes, 7 tensors)

action_model._continuous_distribution.log_sigma f4 [1, 2]
00000000: 81cc 2b3b d2aa d13b
0.0026214423 0.006398537

action_model._continuous_distribution.mu.bias f4 [2]
00000000: dc1c 993b 0797 263c
0.0046726298 0.010167844

action_model._continuous_distribution.mu.weight f4 [2, 128]
00000000: 2fc7 f13b 1f17 cdb9 ffe5 123c a777 e93b
00000010: 159d d53b 66fa 433c c876 9ebc eb74 76bc
00000020: 188b 013c fff2 89bc 128f 7dbb 22f8 2c3c
00000030: a93f 51ba d044 db3c 20c4 053d efd3 c3bc
00000040: 654a 173d a21d 073d 9ddd 0f3d b374 993a
00000050: b70e 5d3c 21e4 3a3d c351 9f3c a6e0 70bc
00000060: d4ad fdbb 43b9 adbc 2875 3bbc f6d1 f63b
00000070: 08fd 74bc 1d7f 54bc cb9d dbbc 8fb5 ba3c
00000080: 27d2 083b 83ee d03d 8dbb 76bc c9ae 2abd
00000090: 8903 9abc a565 223d 5413 2dbc c176 753d
000000a0: 7987 d13c 390a 673c 6637 8638 6313 1ebd
000000b0: a931 9d3b d41c e0bb 6b4a e6bc b372 813c
000000c0: e514 9f3c a431 243c 7cbb 02bc 255e 11bd
000000d0: a424 983b c6c9 9d3c c05e acbb 6d5a 80bd
000000e0: e56b 8f3c 42cb dfbc 287e 213b 35d3 aa3c
000000f0: 6076 c5bc 6e8d f6ba fe03 92bb fa4c 17bc
00000100: 4d30 2fba f69a 8dbc 98c6 e1bb d1af 0dbb
00000110: 1503 583b d5fe b3ba 21c3 d33c bb39 2b3c
00000120: fcb1 fe3c 48b4 5e3c 9fe8 373c 7949 c337
00000130: 047e 8c3c ec5f 91bb 4095 9fbc 2fe2 38bb
00000140: cbdb 683d d498 bdbc 620b a73b f592 1d3d
00000150: 5bf9 363b 5478 71bb 54e4 753c c238 64bc
00000160: 31ea 7e3c dae7 0d3d 4f7a f6bc ad2b cc3c
00000170: 047b 8b3b 5506 1bbc d9da 9ebc 05af 0f3d
00000180: 62ce 3abc ed49 103c 1e2b eabc 25e7 a0bb
00000190: 76a9 60bc cef6 83bc 39a1 00bd a821 663d
000001a0: 0f39 88bc 438b 5ebb f16f 09ba ff5e 1c3b
000001b0: 531c 52bd 2fd7 47bb eaf6 17bd 264c 263c
000001c0: 26ab 373c 69fb 38bc 89c3 2e3c bcd2 033d
000001d0: 4bb7 6dbc df94 323d 93be 163d dc59 c23b
000001e0: b9db 1f3a ee75 893c 200c 48bc 70de 0f3b
000001f0: 5422 b9ba 21de 913c cdc6 c23b e8d2 373c
00000200: 7ddc 2f3c c9af 523b 952b 023a 0276 ae3c
00000210: c962 35bd 2b1b 8abb 46dc e33b e48d b13c
00000220: d1fa d4bc f585 b8bb a4c0 4cbc a178 2b3c
00000230: ff54 dd3a 92de 3b3b e27d 95ba dac1 9f3a
00000240: a434 90bc 53dc 10bc d05b 293d b59f 16bd
00000250: 3cea c43a 7cac 03bc c408 ddbc 4c7c 153d
00000260: de80 d3bb feea e03c f8f9 9e3c 42b3 9d38
00000270: f3ae 71bb 6b2f f43b b4fc e43c e576 583c
00000280: 9a25 213d 9072 bebc cad6 b63b 9fd5 b03c
00000290: 0d87 3a3c 1993 9d3a 0102 21bc 06f5 7bbc
000002a0: ccc2 d5bc a2d2 563c 04e4 96bb 2e71 39bd
000002b0: a9e7 5abd 4a64 3a3c 8227 1fbd 68ce 833c
000002c0: 4c90 613c 60b0 c63c aca7 5bbb c6a9 a43c
000002d0: 6303 483b a1ce 073d e211 a53c 71b8 36bb
000002e0: ae67 8f3c fcc5 b3bc 532f 00bc ba43 84bc
000002f0: c908 4d3c aa47 a2bb ddfe 95bc 149e e8ba
00000300: 403e 0039 e34f 3abc 4055 e7bb 1abe 733b
00000310: f063 023d 7430 f13b 6053 a7bb 0f36 18ba
00000320: 2cfd 57bb 4646 343c 1160 063d 87ff 05bd
00000330: e9ea 0ebd 6dc7 663c 2724 3abc 8e93 3c3d
00000340: 9bf8 0f3c 6a26 b43c d93f 243c 116f b9bb
00000350: 1da2 3bbc 4083 4b3c 1e3b b23c 0c05 273d
00000360: 48a5 d4bc 8824 bb3c a86b 27bd eb19 e03c
00000370: d2aa 803d 3966 84bc 99a4 af3c 40ac 1239
00000380: e693 173c 50fe 85bb a646 a13c da13 953b
00000390: 86e8 37bc f88e 403c 80e4 253c 22bf 903c
000003a0: 48c7 c63c 74f1 1e3b 1a5f 553b a9cb 1a3b
000003b0: 67ef 1cbd ac90 453d 80b6 893d 23d0 b13b
000003c0: 97aa ec3b 2d22 e93b f215 e13b 5228 b53c
000003d0: f9d8 ddbc b0f4 943c 1db5 df3c 3151 92bc
000003e0: c96e d73c 5171 55bc 4b42 e63c acf6 bebc
000003f0: 53bb ccbc 73fe 4d3c 1a1a 7bb9 cd40 1b3a
0.007378481 -0.00039117874 0.008965968 0.0071248594 0.00651897 0.011961555 -0.019343749 -0.015042524
0.007906698 -0.016839502 -0.0038690013 0.010557206 -0.00079822034 0.02676621 0.032657743 -0.023904769
0.036936183 0.032987244 0.035123456 0.0011707753 0.013492278 0.045627717 0.019448167 -0.014701998
-0.007741669 -0.021206504 -0.011441506 0.0075323535 -0.0149529055 -0.012969759 -0.02680864 0.022791652
0.0020877214 0.102017425 -0.015059364 -0.041670594 -0.018800514 0.039647717 -0.01056369 0.059927706
0.025577294 0.014101558 6.399937e-05 -0.038592707 0.0047971797 -0.006839374 -0.028111657 0.015801763
0.019419143 0.010021601 -0.00797927 -0.035490174 0.00464304 0.019261252 -0.0052603185 -0.06267247
0.017507503 -0.0273186 0.0024641845 0.020852664 -0.024104297 -0.001881046 -0.0044560423 -0.009234661
-0.00066829176 -0.017285805 -0.0068901293 -0.0021619687 0.0032960821 -0.0013732562 0.02584988 0.010450776
0.031090729 0.013592787 0.011224895 2.3280025e-05 0.017149933 -0.0044364836 -0.019480348 -0.0028210988
0.056850236 -0.023144163 0.0050977925 0.038470227 0.0027919624 -0.0036845403 0.015008051 -0.013929548
0.015558765 0.03464494 -0.030087618 0.02492317 0.004256608 -0.009461959 -0.019391464 0.03507902
-0.011401745 0.008806688 -0.028585013 -0.004910367 -0.013712278 -0.016108897 -0.031403754 0.05618444
-0.01662877 -0.0033957518 -0.0005242816 0.0023860333 -0.051296543 -0.003049325 -0.03710071 0.010149991
0.011210239 -0.01129041 0.010666736 0.032183394 -0.0145090325 0.043599006 0.03680284 0.005931122
0.000609811 0.016779866 -0.012209922 0.0021952651 -0.001412461 0.017806115 0.005944109 0.011219718
0.010733721 0.0032148233 0.00049656007 0.021296505 -0.044283662 -0.0042146645 0.006953749 0.021674104
-0.025998505 -0.0056312033 -0.012497101 0.010465772 0.0016886293 0.0028666598 -0.0011405314 0.001218851
-0.017603226 -0.008841592 0.041347325 -0.036773402 0.001502342 -0.008036729 -0.026981719 0.03649549
-0.006454571 0.027455803 0.019406304 7.519733e-05 -0.003687796 0.0074519417 0.02795253 0.01321194
0.0393425 -0.023247987 0.005579804 0.021586237 0.011384738 0.0012021988 -0.009827138 -0.015378242
-0.026093863 0.013111742 -0.0046048183 -0.045273952 -0.053443585 0.01137645 -0.038856037 0.016089633
0.013767313 0.024254024 -0.0033516688 0.020100486 0.0030519597 0.03315604 0.020150129 -0.0027880932
0.017505493 -0.021944992 -0.007823783 -0.016145576 0.012514302 -0.0049523907 -0.018310005 -0.0017747306
0.00012230221 -0.011371586 -0.007059723 0.0037192167 0.03183359 0.0073605124 -0.0051063746 -0.0005806395
-0.0032957299 0.011003083 0.03280646 -0.032714393 -0.034891997 0.014085633 -0.011361158 0.046039157
0.0087872995 0.021990974 0.010024988 -0.005658992 -0.011452225 0.012421429 0.021756705 0.040776297
-0.025957718 0.022844568 -0.040874153 0.027356109 0.062825814 -0.016162025 0.021440791 0.00013987813
0.00925157 -0.0040891543 0.019687008 0.0045494856 -0.0112248715 0.011752836 0.010125279 0.017669264
0.024264947 0.0024252804 0.0032557906 0.0023619926 -0.03831425 0.048233673 0.06724262 0.005426423
0.0072224843 0.00711467 0.006869071 0.022113953 -0.027081 0.018183082 0.027308041 -0.01786098
0.026297944 -0.013027505 0.028107783 -0.023310982 -0.024991667 0.012572872 -0.00023946949 0.0005922437

network_body.linear_encoder.seq_layers.0.bias f4 [128]
00000000: 2cae 473b d6fa c5bd bfbe 0fbd d0b8 b9bc
00000010: b6ae 7cbd e40c d1bd 2212 d73c c501 68bd
00000020: b8e3 d43c 757f ab3c 7452 9abd 1337 8cbc
00000030: 2afe 74bc aa81 68bd c850 35bd 8d96 c3bd
00000040: 8eee cd3c 9c29 8fbd c7f2 ec39 14f8 983c
00000050: 42da 8fbd de87 87bc 76ec 1bbd 74bd 7dbd
00000060: 1fd4 44bd 5f98 e8bc 079c c7bd 513d 82bd
00000070: 1457 b3ba 6cb3 b7bc 284a b8bb be1c 47bc
00000080: d918 94bd b2cf 37bc c9e3 cebc 9aa4 89bd
00000090: 69a9 d03b c7f4 fbbc 9ef4 8f3b 9379 c0bc
000000a0: 51df e3bd f58d 4cbd 9b28 0c3c 90eb 48bd
000000b0: 5b9b b3bc 1a98 75bd 13b5 15bc e970 e0bd
000000c0: 2f4f 0ebd 8ea0 f5bc f238 163d ce90 4bbd
000000d0: 777f 0ebd cccb 0ebd 7a4b 09be 8e91 d439
000000e0: 020a 31bd cafa a4bd 1b55 46bd 2b44 08bd
000000f0: f9d4 72bd 707f b4bd 83f9 4bbd 834f 6fbc
00000100: 076b bfbc da4c 97bc ba13 df3c 4510 a73c
00000110: 16f9 84bd 09a1 983b 0442 b6bd 1068 9bbb
00000120: cbec c0bd c82a 81bd eab1 95bd 3239 4f3c
00000130: f1b4 52bd 853b 0abd 71d6 86bd fe0d d8bc
00000140: 0a55 50bd f902 ad3c aed1 0bbd 87b7 f43c
00000150: 518b 63bd 8e33 b73c 6e5d e83c 7996 fcbc
00000160: 47ea 533d 33ed bebd 81c7 69bd a4df 103c
00000170: 3e84 0fbd 34f1 b83c 81e4 bfbd 2d38 bcbc
00000180: 3d31 0bbd 5595 b3bd 9fdb 37bd 6d85 f2bc
00000190: c962 d23c 981b ccbc daa1 ffbc 2c3c 7cbd
000001a0: 7e7a 413c 85b5 24bd 0c03 b5bd 27f8 14bd
000001b0: 2bc4 d6bd 24e6 45bd bcae 11bd e2a6 83bd
000001c0: 2208 58bd d6c1 3ebd 78c9 b1bc 8371 00bd
000001d0: 599f d1bd 3cb3 f6ba 2476 38bd eeb8 9fbd
000001e0: 1f83 323b 7421 6dbd 0c95 87bd 1949 77bd
000001f0: 9cd5 893c 529c 84bd c357 1dbd e519 80bd
0.0030468805 -0.09666984 -0.03509402 -0.022671133 -0.061690055 -0.10207537 0.026253764 -0.056642313
0.025987491 0.0209348 -0.07535258 -0.017116105 -0.014953176 -0.056764282 -0.044266492 -0.095502
0.025138166 -0.06990358 0.0004519431 0.01867298 -0.07024051 -0.016544279 -0.038067304 -0.061948255
-0.048053857 -0.028392969 -0.09746557 -0.063593514 -0.0013682568 -0.022424422 -0.0056240745 -0.012152849
-0.07231302 -0.011218952 -0.0252551 -0.067208484 0.0063678515 -0.030756367 0.0043931743 -0.023495471
-0.111265786 -0.04994007 0.008554603 -0.049052775 -0.021924665 -0.05995951 -0.00913741 -0.10959036
-0.034743484 -0.029983785 0.0366754 -0.049698643 -0.03478953 -0.034862325 -0.13407698 0.00040544238
-0.043222435 -0.08055647 -0.048421007 -0.033268135 -0.059285138 -0.08813369 -0.0497985 -0.014606359
-0.023366464 -0.018469263 0.027231086 0.0203935 -0.06492822 0.0046578688 -0.0889931 -0.00474263
-0.09420165 -0.06306988 -0.07309325 0.012647914 -0.05144209 -0.03374817 -0.0658387 -0.02637386
-0.05086235 0.021119582 -0.034135513 0.029872669 -0.055552784 0.02236345 0.028364863 -0.03083347
0.051737096 -0.09322586 -0.057075027 0.008842383 -0.035038225 0.022575952 -0.093697555 -0.022976005
-0.033982504 -0.08768717 -0.04488718 -0.029604638 0.02568187 -0.024915501 -0.031205107 -0.061580822
0.01180899 -0.040212173 -0.08838472 -0.03636947 -0.10486635 -0.048315182 -0.03556703 -0.06428315
-0.05274213 -0.046571575 -0.021702513 -0.031358253 -0.10235471 -0.0018821727 -0.045034543 -0.077989444
0.0027238799 -0.05789323 -0.06620225 -0.060372446 0.01682549 -0.06475128 -0.038413774 -0.06254939

network_body.linear_encoder.seq_layers.0.weight f4 [128, 6]
00000000: d8b8 063e 7da2 80be fb04 cd3c afa4 75be
00000010: 2f62 303f 56f6 0a3f 327f a13e 4f84 913f
00000020: d75e bebe 8fd8 393d a712 2b3d 934c 1b3f
00000030: dd41 b93d 7411 87bd d2c9 343f 6b20 1fbf
00000040: a632 5dbf bc3b 25bf ae6b e6bd 60ff 2a3e
00000050: eff2 0a3c c44f 0ebf e8a9 85be 2308 e3be
00000060: 4d5a a73e 9267 4d3f 8a6a 693e 9a84 97bc
00000070: 270d 2ebf 5308 e5bd 1080 f73e cfe5 abbc
00000080: 360c 373e 511e 803e 0d01 27bf b6de c5be
00000090: 0fa9 be3e 5c58 08bf 2c63 79be c327 65bf
000000a0: 5b6a b83d aa59 1b3e 281e 49be ff8f 1dbe
000000b0: 1805 993d 1e28 a0be 8df1 2ebf 9cfb eb3c
000000c0: 02a2 46be f65c f1be 93b3 9b3e 1db5 b8bd
000000d0: 0e1e 463f 70ee 2f3f 712f ac3e 6486 203d
000000e0: 8993 9d3b a9d6 1cbf aa5f 133e aa16 123e
000000f0: a5f4 413e 5902 3c3f bf94 06bf 7cff 713f
00000100: 8afa 4d3f c57f 3abd b68e 72be c140 883d
00000110: 28f3 e73e 800f 503c 5c75 3cbf ef88 453e
00000120: 35a2 cd3e e885 5fbe 9d77 26be 2e08 a6be
00000130: 1332 b1bc 473a d3be e309 dd3e 9726 273f
00000140: 6d9d 983e 0c0d 1b3f bfaf d1be 8c3a 48bf
00000150: 884a b0be 995e 503e ae46 23bf 2611 f8be
00000160: 2913 273f 618a 1bbf 7b03 0f3e 210b 81bf
00000170: 3d8c 17bf 4f58 b2be 8066 1ebe e180 b4bd
00000180: 2ee5 1a3f 621b a63e c142 29be 04ab d3be
00000190: 0a54 84bf b219 91be b06e 8dbe 3e61 0a3f
000001a0: 8c9a 95be 80b8 79be 9a3f 133f 3fec febe
000001b0: 8900 f6bd 52ba 353e 5b32 913d 82d5 1b3e
000001c0: 8e13 6c3e a579 6fbd e997 ffbe 9817 593e
000001d0: af75 da3e 3fb5 d6bc 0aa0 8e3e dd4b 393f
000001e0: 2ebf e43e 565c 0b3f f048 703e 3e20 d4bd
000001f0: 8139 483e e791 2ebf 9479 a53e 16d8 f03e
00000200: 6c04 a8be 112f 8a3c e01e 94be 67c5 973d
00000210: f5df 0a3e 4192 e23e 759e 773e c26f d2be
00000220: 395b bebe fc81 0abf 8f1e a4be 6e9a 34bd
00000230: 0168 0a3e 861b a63c 55e8 08bf 9ade d2be
00000240: bf4a d73d 1656 dd3e 00b6 933e 96c7 70bf
00000250: afb4 433d 065d bd3e 4dd7 bf3d 4a37 dbbc
00000260: 9643 7dbe 73cf 00be 456d 84bd 571a 4d3e
00000270: b0da 17bf 88d6 5cbe 5701 f5bd 7571 c4be
00000280: 57c5 8ebe 4270 16be 9126 aa3e 0360 b63e
00000290: 4d97 03be 3037 6abd 6df4 1c3e d099 09be
000002a0: 6a36 033e e4ad cfbe ef6e 9d3e db60 d3bd
000002b0: 0b45 99be 559d f7be d784 603b 1523 a8be
000002c0: 905b 4c3f 1f02 14bf 9e13 e63d 61fe c9be
000002d0: 89ad dcbe c998 563f 43f7 57be 9e75 003d
000002e0: d6b0 61be b1fb 5bbf fb78 c03e b2da 88bd
000002f0: 2326 b63e 4111 613d 4547 8abd 10cb 7a3e
00000300: 59bc 103f 7b8e 983e 62b7 3fbe f791 5bbc
00000310: 3c14 2d3f ea57 d5be 18c5 4bbe 1e04 423c
00000320: 8ec7 80be cf18 eb3c e6ee 1e3c a09d 39be
00000330: 8fb6 d03c 54f8 763d 3c9b 02be b565 2d3e
00000340: c9d2 d43d e1b1 8f3e 085d 12bd b637 eabe
00000350: 7c82 ab3e 0f06 03be 471b 733e 95da 46be
00000360: 383b 8c3e bca2 0bbe 5c8a d93d eb9d ec3c
00000370: 4850 273e 801c 213f 7061 963e 2a23 613e
00000380: b795 473e 60ed b03e ab4d 843e 2e1a 8c3e
00000390: d3c6 443f e0ac 2fbf 83ce 5fbe 08af abbe
000003a0: 8f79 e6bd 8dc8 22be 0e5f 123f d18b 813e
000003b0: e911 d83c adf1 67be d2c0 2d3f 5e5e 873d
000003c0: dfc0 4f3e 57e9 843e 4032 26bf 773a 883d
000003d0: cc47 0fbe c261 1fbe 80e5 a6bf c511 ecbe
000003e0: d01a 84bd 5057 813d bee0 8f3d 53cf 27bf
000003f0: a2cf 07be e516 18bf 7a3f 30bd b687 6ebe
0.1315645 -0.2512397 0.025026789 -0.23988603 0.68899816 0.5428213 0.31542355 1.1368502
-0.37181732 0.045372542 0.041765835 0.6066372 0.090457655 -0.06595126 0.70620453 -0.6215884
-0.8640541 -0.6454427 -0.11251007 0.1669898 0.008480771 -0.5559046 -0.2610619 -0.44342145
0.32686082 0.8023616 0.22794548 -0.018495847 -0.6798882 -0.11183228 0.4833989 -0.020983605
0.17875752 0.2502313 -0.6523598 -0.38646477 0.37238356 -0.53259826 -0.24354237 -0.89513797
0.09004661 0.15170923 -0.1964041 -0.15386961 0.07471675 -0.31280607 -0.6833733 0.0288065
-0.19397739 -0.47141236 0.30410442 -0.090189196 0.7738961 0.687232 0.33629945 0.039190665
0.0048088473 -0.61265045 0.14391962 0.14266458 0.1894098 0.7344108 -0.5257072 0.94530463
0.8046042 -0.045532007 -0.23687252 0.06652976 0.453027 0.012699008 -0.73616576 0.19290517
0.40162817 -0.21828425 -0.16256566 -0.32428116 -0.021630323 -0.412554 0.43171605 0.6529326
0.29807606 0.6056678 -0.40954396 -0.78214335 -0.34431863 0.20348586 -0.63779724 -0.48450583
0.6526361 -0.60758024 0.13966171 -1.0081521 -0.5919836 -0.34833 -0.15468788 -0.08813644
0.6050595 0.32442766 -0.16529371 -0.41341412 -1.0338147 -0.28339916 -0.2762351 0.5405463
-0.29219472 -0.24386787 0.57518923 -0.49789616 -0.12011821 0.17746857 0.07089683 0.15218166
0.23054335 -0.05846562 -0.49920586 0.21200407 0.4266791 -0.026209472 0.27856475 0.72381383
0.4467711 0.5443777 0.23465323 -0.10357712 0.19553186 -0.6819138 0.3231932 0.4703986
-0.32815874 0.016868146 -0.28929806 0.074106984 0.13561995 0.44252208 0.2418154 -0.4110089
-0.37178972 -0.5410459 -0.32054564 -0.044092588 0.13516237 0.020276796 -0.5347951 -0.41185457
0.105123036 0.4322974 0.28849792 -0.94054544 0.047779735 0.36985034 0.09367237 -0.026759762
-0.24732813 -0.12579136 -0.06466154 0.20029579 -0.59318066 -0.21566212 -0.11963146 -0.3836781
-0.27884933 -0.1469126 0.3323255 0.35620126 -0.12850685 -0.057181537 0.15327616 -0.13437581
0.12813726 -0.40562356 0.30748698 -0.10321208 -0.29935488 -0.48362222 0.0034258866 -0.32839265
0.79827213 -0.57815737 0.112342104 -0.39451888 -0.43101147 0.8382688 -0.21090417 0.03136217
-0.22040114 -0.85930926 0.375923 -0.06682338 0.3557597 0.054948095 -0.06751875 0.24491525
0.56537396 0.29796204 -0.18722299 -0.0134015 0.67609 -0.41668636 -0.19899404 0.011841802
-0.25152248 0.028698353 0.0097005125 -0.18126535 0.025477676 0.060295418 -0.1275453 0.1693333
0.103917666 0.28065398 -0.035733253 -0.4574563 0.3349799 -0.1279528 0.23740874 -0.1941932
0.2738893 -0.13636297 0.10622093 0.028883895 0.16339219 0.6293411 0.29371214 0.2198607
0.19490705 0.34556103 0.25840506 0.27363724 0.7686588 -0.6862316 -0.21856122 -0.33531976
-0.11253654 -0.15896817 0.5717629 0.25301984 0.026375728 -0.22650786 0.67872345 0.06609796
0.20288418 0.25959274 -0.64920425 0.06651776 -0.13992232 -0.15564635 -1.3038788 -0.46107307
-0.064504266 0.06315482 0.07025288 -0.65550727 -0.132628 -0.59409934 -0.043029286 -0.23293957

network_body.linear_encoder.seq_layers.2.bias f4 [128]
00000000: 4005 1ebd 0bda 49bd 728d c2bc 14f4 17bc
00000010: e8f6 373c 343a d8bc 065d 13bd 8737 02bd
00000020: 9059 02bb f388 3cbd 491f 2abc 4166 55bc
00000030: 295d 8fbd e5d9 1639 9cea 943c 56c6 a6bc
00000040: dd5f 8fbc a530 cf3c a36b 913d 0d07 dcba
00000050: 77ff 05bd 5d3b f23c 2df8 eabb f3b5 993c
00000060: be43 0dbd 4d8a dcbd 8403 cabd 202e 88ba
00000070: 11e6 04bd bec7 aebb 88ec a83c b85a 5c3b
00000080: a939 863c c480 a73d a757 afbc abd9 6e3c
00000090: d6c4 a8bd 9a30 fbba 072c 83bd 3e37 303d
000000a0: ada2 a63b e5aa 90bc 4114 31bd be02 893d
000000b0: 4595 18bc 0829 56bd 3e5f dc3c 44e7 2fbd
000000c0: dec9 c93c c866 69bd bbdb 34bd 69b5 f53c
000000d0: 8055 3bbd 4ad6 563d 88ee fbbc ff87 043a
000000e0: 187f ca3a 6641 bc3c 0b41 033c d20d 443a
000000f0: 4f92 41bc b711 72bc 8892 c3bc 6ecc aabc
00000100: 9eef 99bd d70e cbbc b8c1 abbd 329f 56bd
00000110: ca1b 7fbc a159 cbbc b35e 003d a9a4 633c
00000120: 25a8 0cbc 3c2e e43c cef7 1cbb f5e4 063c
00000130: 2118 903c b4a1 8bbc 74d9 173b 2147 803d
00000140: 730e 243d c3d0 943c 7ece 88bc 138c ef3c
00000150: 0aa5 afbb b948 d0bc f1e3 a839 72f7 0b3c
00000160: 0841 a53c 0920 073d dc3b 033d 840a 5e3d
00000170: 1048 ab3c 5c67 c53b afa0 6ebc 8bf9 8c3c
00000180: b753 03bc 4b12 debc a27a 0dbd f30f 37bc
00000190: a02c e0bc 3ae3 59bc d301 a3ba 3d1e 653d
000001a0: 29a3 893a 99e2 67bc cf7e 5dbc 3965 47bd
000001b0: b0e3 d93c 5805 893d 41fa 203d cf82 b4b9
000001c0: 1df0 c4bc 5432 cebc 84b9 1cbc 7889 84bb
000001d0: f896 d83c 66aa 073d 4674 183d 461b 92bb
000001e0: dafd 983b 3931 2dbc a239 15bd 91bd 1c3d
000001f0: ec53 e53c 253d d7bc 9e28 9cbb 6a8a d8bc
-0.038579226 -0.049280208 -0.023749087 -0.009274501 0.011228301 -0.02639494 -0.035977386 -0.031791236
-0.001988981 -0.046029042 -0.0103834355 -0.0130248675 -0.07000191 0.00014386287 0.018178277 -0.020358246
-0.017501766 0.02529175 0.07100608 -0.0016786769 -0.032714333 0.029569322 -0.007170698 0.018763518
-0.034488432 -0.10768566 -0.09863952 -0.0010389723 -0.03244597 -0.0053338697 0.0206206 0.0033623409
0.016384916 0.08178857 -0.0214041 0.014578263 -0.082406685 -0.0019164265 -0.06404882 0.043021433
0.0050853104 -0.017659614 -0.043232206 0.06689976 -0.009312932 -0.052285224 0.026900884 -0.04294516
0.02463239 -0.056982785 -0.044154864 0.02999373 -0.045735836 0.052450456 -0.030753389 0.00050556654
0.0015449254 0.022980403 0.008011113 0.0007478866 -0.011814668 -0.014774731 -0.023873582 -0.020849433
-0.075164065 -0.02478735 -0.08386558 -0.052397914 -0.01557059 -0.024823012 0.031340312 0.0138942385
-0.008585011 0.027854078 -0.0023951414 0.008233299 0.01758963 -0.01704488 0.0023170384 0.06263567
0.040052842 0.018165952 -0.016700026 0.029241597 -0.0053602504 -0.025425302 0.00032213287 0.008542882
0.02017261 0.032989535 0.03203951 0.054209247 0.020908386 0.0060242843 -0.014564677 0.017208835
-0.008015565 -0.027108332 -0.03454078 -0.011173236 -0.027365029 -0.013298804 -0.0012436457 0.05593704
0.0010500896 -0.014153146 -0.013519003 -0.048680518 0.026597828 0.06690472 0.03930116 -0.00034429735
-0.024040276 -0.025170483 -0.009565715 -0.004044708 0.026439175 0.03312149 0.037220262 -0.0044588177
0.0046689333 -0.010570818 -0.036431916 0.038266722 0.027994119 -0.026274273 -0.004765584 -0.026433188

network_body.linear_encoder.seq_layers.2.weight f4 [128, 128]
00000000: f226 e53a 9a06 c8bd a0b1 783d 0e7b 783d
00000010: 8efb 2cbe f4ef 9dbd 4666 813d f7fe 67bd
00000020: b79b 98bd 775c f33d e005 05bd 2983 e13d
00000030: 003d a4bd a623 2ebe 468d 943c d559 b23d
00000040: a027 b4bd 11f2 7bbd c318 a13c b783 c23c
00000050: 0504 94bb d7dc 91bd 0661 85bc 148a 033c
00000060: 6fd4 053d 23ad b73d 7309 91bd 88e9 cbbc
00000070: c5e7 d1bc 280b 1d3e 442f 083e 3cb0 353e
00000080: 9bb5 aebd 06c3 f03d 09e5 07bc 2c58 96bb
00000090: bfdc 633c dea3 afbd 1b9a bf3c 29f5 73bd
000000a0: b9e1 48bd a88f cbbd 2e19 c33b d7a6 04be
000000b0: 671e 9e3d fc71 b4bd 7b45 06be b650 64bd
000000c0: 5735 b23d 79ec 2abe b3fa f9bd 3db2 833b
000000d0: eb6b eabd d639 853c 16fc 50bd 7a27 dc3d
000000e0: aaa4 1c3c 1a94 34be 4570 15be b159 cd3d
000000f0: 8d40 093e b0db 63be 9b09 2ebb 4f1f 29be
00000100: fb66 03bd 1874 1ebc 184e 03bd 5571 afbc
00000110: 1b31 73be 7467 ea3d 1544 e43c 8bfd ddbd
00000120: c82d 3d3d dada 9bbd 2349 9c3c 9580 203d
00000130: 403b b2bd 73c9 003d b308 00be 8252 50bc
00000140: 6518 9c3d 81bb 983d 5b21 8e3c bf84 5bbe
00000150: 6a57 58bd 1c66 a2bc 078f 50bd 0d2b 5cbd
00000160: 19d8 573c 6fb6 b33d 5f4e 273c aad6 19be
00000170: 2c06 3dbd a69e 0e3d 8f4a 4f3d 0633 7d3d
00000180: 66ac dabd c5d5 edbd 7087 4dbd 79f4 bbbd
00000190: 62a2 263e aade 12be 7325 c83a 154d a33d
000001a0: 3f11 4abc 0127 febd 3005 82bd a4fa c4bd
000001b0: cf3f 5ebd 9ade e63c 19b5 e9bd ec0d 2cbd
000001c0: dd3a a33d 6f26 98bd d680 0ebd 4bd5 d1bd
000001d0: 86a4 823c 7308 fdbd fbfd 343d d63b 0fbe
000001e0: 7ce2 f8bc 8fd4 e7bd fdff 9c3d 37d0 a9bd
000001f0: 83ab 35bd bce2 553d f173 c4bd e1a1 dabd
00000200: fba5 5bbe e4f1 ef3c c570 c13c 7a4b df3d
00000210: 096e 143d 4803 6abd 5f36 f63d 30ba 163c
00000220: 675b 35bd 3837 19bd 2338 04bc c4c7 f5bc
00000230: 823e d7bd a417 a8bd 1676 273e 93ce e5bc
00000240: b6f2 01be 2a84 1d3d 280a 2d3d 7e20 253a
00000250: b41c dc3c f204 00be 1f3b 1cbd 773c 57bd
00000260: 3d6c ccbd 4ebc 063e 4f61 473e c1d2 ddbd
00000270: 8648 383e 241e 58bd 9b81 a3bd 9937 303d
00000280: 3475 a1bd 1a26 9e3d b2ba 463e 864e 73bd
00000290: 9c33 a83d b26c 4b3e 7fd3 aebc 782b b93c
000002a0: 1141 ae3b d263 e0bd 743c 92bd cbe6 27bd
000002b0: fa3d bd3c aaf5 b03d 2750 35be 08ee 733d
000002c0: 9503 89bd 94ac 9d3b 0f0d 183e 6691 4ebc
000002d0: 4d57 043c e561 6ebe fd03 40be 177a 42be
000002e0: 52cd 18be 377d b63c 7760 f03d 33ff 073d
000002f0: c5c1 14be c9a0 7bba 3a77 f1bd 20bf 13bc
00000300: f141 53bd 1eae f8bd 927e e8bd 09f1 13be
00000310: ce7c 2a3d f06d b9bc 68d5 29be ea50 ae3d
00000320: e4d3 fabc dec2 d93c 3bbb bcbd f920 893c
00000330: 3a87 473d f783 68bc 4d08 64bc 6bef 603d
00000340: 5704 8d3d 45a4 84bd 31b8 03be 8d42 6bbc
00000350: 3b10 c8bd 76a4 ecbd ab85 23be 9d88 2cbd
00000360: 5376 80bd 27b6 1abe 9a8c 10be 2936 95bd
00000370: ebc2 bd3c 195a 65bd fbde 403d 5ceb 953d
00000380: c17d f83c 7efc d1bd dd68 a63c abd5 a6bd
00000390: d0e4 93bd 96fa 89bc cfad a3bc 563d 2c3d
000003a0: 2fad ae3c 7c99 8fbd 97a8 0bbe c752 23be
000003b0: 0506 073e b320 90be c87c 95bd e751 073c
000003c0: 9a19 8f3c a687 fd3a f5ed a6bc 8e0b 06be
000003d0: 3fde f23c a842 593d 3227 1fbe 5d18 8b3e
000003e0: d46a 81be 83d4 06be cb9e ca3d 6dec 243c
000003f0: 6beb 7c3d 4e05 51bd e62e a0bd 1a86 613d
0.001748292 -0.09766884 0.06071627 0.06066423 -0.16892835 -0.07711783 0.06318335 -0.056639638
-0.07451575 0.11882871 -0.032476306 0.11011345 -0.08019447 -0.17005786 0.01813377 0.0870854
-0.0879662 -0.06151015 0.019665128 0.023744447 -0.0045170807 -0.071222 -0.016281616 0.008028526
0.032673296 0.0896857 -0.070818804 -0.02489163 -0.025623212 0.15336287 0.1329928 0.1774301
-0.08530732 0.11755948 -0.008294352 -0.0045881476 0.01390761 -0.08576177 0.023388913 -0.059559975
-0.04904339 -0.0993951 0.0059539294 -0.1295427 0.077206425 -0.08810803 -0.13112442 -0.055741034
0.0870158 -0.1669177 -0.1220602 0.0040190504 -0.11446365 0.01626293 -0.051021658 0.10749717
0.009560743 -0.17634621 -0.14593609 0.10026873 0.1340353 -0.22251773 -0.0026556018 -0.1651585
-0.03208063 -0.009671234 -0.032056898 -0.021416346 -0.23749201 0.11445513 0.027864495 -0.10839375
0.04618624 -0.07610102 0.019077843 0.039185125 -0.08702707 0.031442117 -0.12503318 -0.012714984
0.076218404 0.074576385 0.01734989 -0.21437357 -0.05281774 -0.01982408 -0.05091765 -0.053751994
0.01317408 0.08775031 0.010211556 -0.15023294 -0.046148464 0.034819268 0.050608214 0.061816238
-0.10677414 -0.11613039 -0.05017799 -0.09177489 0.16272882 -0.14342752 0.001526995 0.079736866
-0.012333213 -0.12409783 -0.06348646 -0.096181184 -0.05426007 0.028182317 -0.11411495 -0.042005464
0.07970212 -0.074292056 -0.034790836 -0.102457605 0.015947592 -0.12355127 0.044187527 -0.1398767
-0.030381434 -0.11319839 0.076660134 -0.08291667 -0.04435302 0.052218184 -0.095924266 -0.10675407
-0.21450035 0.029290147 0.023613343 0.10903068 0.03623775 -0.057132035 0.12022089 0.009199664
-0.04427662 -0.037406176 -0.008070025 -0.030002482 -0.10509969 -0.08207634 0.1635364 -0.028052604
-0.12690243 0.03845612 0.042246014 0.0006299092 0.026869155 -0.12501886 -0.03814232 -0.0525479
-0.09981582 0.1315777 0.19470714 -0.10831214 0.17996415 -0.05276312 -0.07983705 0.043021772
-0.07883683 0.07722111 0.19407156 -0.059401058 0.08212969 0.19865683 -0.021341084 0.022603735
0.005317815 -0.10956539 -0.07140437 -0.040991586 0.023100842 0.08640607 -0.17706357 0.059553176
-0.06690136 0.0048118327 0.14848731 -0.012607908 0.008077455 -0.23279531 -0.18751521 -0.18991886
-0.14922073 0.022276504 0.11737149 0.03320236 -0.14527042 -0.0009598849 -0.11790319 -0.009017736
-0.05157656 -0.12142585 -0.11352266 -0.14447416 0.04162293 -0.02263543 -0.16585314 0.08511527
-0.030618615 0.026582178 -0.09215399 0.016739355 0.048712946 -0.014191619 -0.013917995 0.054915827
0.068855934 -0.064766444 -0.12863232 -0.014359129 -0.09768721 -0.11554806 -0.15968959 -0.042122472
-0.062725686 -0.15108548 -0.14116135 -0.07285721 0.023164233 -0.055994127 0.04708765 0.07320282
0.030333402 -0.10253237 0.020313675 -0.08146223 -0.07221377 -0.016843121 -0.01998034 0.042050682
0.021322815 -0.07011697 -0.1363853 -0.15949546 0.1318589 -0.28149948 -0.07299191 0.008259273
0.017468262 0.0019342795 -0.020377139 -0.13090345 0.02964699 0.053042084 -0.15542296 0.27167025
-0.25276816 -0.13167004 0.098935686 0.010066134 0.06174795 -0.05103045 -0.07821445 0.05505953
